results/01_31_2023_5000in_500e/min_loss.pt (torch, 5355 bytes, 1 tensors)

weights f4 [6, 7, 5, 5]
-0.10372917 -0.24396828 0.08344174 0.6071589 -0.34411007 0.23936488 0.49280247 0.6111804
-0.12230627 -0.38333413 0.33224717 0.32103285 0.20211226 -0.015479633 -0.15991782 -0.2166311
0.00015375891 -0.5080432 0.0417756 0.23445101 0.2045038 -0.05526598 0.03952462 0.4898863
0.45215124 -0.38051057 -0.14728118 -0.14839648 -0.22950037 -0.6234174 -0.045200046 -0.50039464
0.03880685 10.662475 -0.21652502 0.009169721 0.7609065 -0.23639846 -0.6801411 0.101226814
-0.38875553 -0.4010414 0.342795 0.17261504 0.15993606 -0.050337054 0.09934515 -0.05549622
-0.6023606 -0.0090804985 -0.021242961 0.19420283 -0.020584166 0.54248226 -0.12033584 0.0602834
-0.19026302 -0.2895583 -14.476491 -0.15279737 0.016771061 -0.078874744 0.5785201 -0.5295371
-0.2547615 0.18959819 -0.1758797 0.43685344 -0.4365464 0.12343726 0.092603624 -0.16492908
-0.039388787 0.35148346 0.39407894 0.19530803 0.5954436 0.035003383 0.10436544 0.029356802
0.4595335 0.7709091 -0.046596806 14.37195 0.24155486 0.098947585 0.708441 0.3547503
0.37796062 0.17307545 0.0663699 0.35602427 -0.13530697 0.41872552 -0.29188162 -0.074251465
0.20580529 0.21438456 -0.4143889 0.43514362 -0.08487499 0.123800166 0.12198656 -0.07911916
-0.07152159 0.4426982 0.06647017 -0.078978606 0.15665923 0.028310932 0.22481729 -0.094282724
0.19144522 0.5132431 -0.2137714 -0.049720205 0.035173476 0.5962686 -0.56052977 0.012276136
0.48615 -0.34578022 -0.043069817 -0.7296901 0.27373338 -0.022859838 -0.27328512 0.026129117
0.19063868 0.15496707 0.5535079 0.31583205 0.0684994 -0.29561746 0.21603426 -0.2899614
-0.5700461 -0.08909083 0.3802272 0.179944 0.1493184 0.37631753 -0.20002246 -0.19530408
-0.21600586 0.12444256 -0.34242076 -0.48751163 0.41090038 0.061974507 0.3684926 -0.30914864
0.0422712 -0.12409141 -0.4590354 5.5620494 0.36807248 0.12967937 0.55644643 0.0026731673
0.1901016 0.34254387 0.1960641 0.046358015 -0.08510318 -0.08437739 0.22490971 0.10821393
0.2713608 0.70835745 -0.09700954 -0.20733659 -0.3490436 -0.13802451 -0.56399626 0.483368
0.22909774 -0.30526516 -0.31458375 0.059999656 0.08279989 0.3625063 0.09251426 -0.23832963
0.10557796 -0.3043785 0.15235074 0.07348014 0.49621347 -0.58332896 -0.35599968 0.75510126
0.53991574 0.47029558 0.15101534 -0.46665093 0.19947614 0.2422897 -0.028669726 -0.1343216
-4.3720956 -0.016669676 -0.37819037 -0.52335805 0.27672502 -0.26216322 0.00013531891 -0.20338295
-0.022649495 0.32442296 0.2658478 0.3857409 0.28626558 -0.11668257 0.41184342 0.13955022
-0.13233835 0.47782418 -5.969071 -0.10624051 0.039416652 0.26005578 -0.35490167 -0.16172235
-0.075443394 0.012848672 0.6947497 -0.86838573 0.24895646 -0.49322498 -0.20709693 0.109173164
0.16386391 -0.34719452 0.25194368 -0.048340622 -0.5819874 -0.35163543 0.0877766 -0.14588901
0.18163484 0.5147591 -0.40391076 -9.244567 0.0638222 -0.16871886 -0.086601295 0.39112994
0.3900013 0.035815492 -9.353632 0.39523643 0.47710487 -0.21554296 -0.4808331 -0.04053612
00000000: f66f d4bd d2d2 79be 81e3 aa3d c46e 1b3f
00000010: 322f b0be 111c 753e 9b50 fc3e 5276 1c3f
00000020: b67b fabd 5f44 c4be 4d1c aa3e 6b5e a43e
00000030: 84f6 4e3e 499e 7dbc 7fc1 23be 8bd4 5dbe
00000040: 583a 2139 1f0f 02bf e41c 2b3d ed13 703e
00000050: 7269 513e 955e 62bd 91e4 213d 61d2 fa3e
00000060: 5e80 e73e 48d2 c2be e1d0 16be 3ff5 17be
00000070: 2502 6bbe 4898 1fbf af23 39bd dd19 00bf
00000080: eef3 1e3d 7f99 2a41 bcb8 5dbe 993c 163c
00000090: c5ca 423f 7012 72be ba1d 2ebf 0150 cf3d
000000a0: f70a c7be 4c55 cdbe d482 af3e ffc1 303e
000000b0: 47c6 233e 3a2e 4ebd 7875 cb3d 0150 63bd
000000c0: 4e34 1abf 5fc6 14bc b805 aebc 1bdd 463e
000000d0: 20a0 a8bc 1ee0 0a3f a372 f6bd baeb 763d
000000e0: 4fd4 42be fc40 94be b59f 67c1 ea76 1cbe
000000f0: 7763 893c 1589 a1bd e519 143f be8f 07bf
00000100: 1970 82be 0726 423e cf19 34be 41ab df3e
00000110: 0283 dfbe adcc fc3d f8a6 bd3d 2be3 28be
00000120: 2356 21bd a4f5 b33e b7c4 c93e d4fe 473e
00000130: fe6e 183f b55f 0f3d 8cbd d53d ad7d f03c
00000140: fa47 eb3e 4c5a 453f 4bdc 3ebd 82f3 6541
00000150: 285a 773e 08a5 ca3d 645c 353f d5a1 b53e
00000160: 0e84 c13e b13a 313e f1ec 873d d048 b63e
00000170: e98d 0abe 3163 d63e 8271 95be 2711 98bd
00000180: 9fbe 523e a087 5b3e c82a d4be 25cb de3e
00000190: f0d2 adbd f18a fd3d 17d4 f93d 3a09 a2bd
000001a0: e979 92bd 57a9 e23e 8321 883d 89bf a1bd
000001b0: 476b 203e 54ec e73c 8136 663e 4d17 c1bd
000001c0: 370a 443e e663 033f e4e6 5abe 6aa7 4bbd
000001d0: 1012 103d 0fa5 183f e17e 0fbf d921 493c
000001e0: a7e8 f83e 1b0a b1be fa69 30bd f8cc 3abf
000001f0: c826 8c3e 8e44 bbbc 07ec 8bbe bb0c d63c
00000200: c936 433e b0af 1e3e b2b2 0d3f bdb4 a13e
00000210: 6a49 8c3d 2c5b 97be 1638 5d3e d275 94be
00000220: 8bee 11bf 4175 b6bd 24ad c23e 3d43 383e
00000230: ece6 183e b1ac c03e b0d2 4cbe cbfd 47be
00000240: a430 5dbe bedb fe3d c651 afbe 209b f9be
00000250: 8961 d23e fbd8 7d3d 10ab bc3e bb48 9ebe
00000260: 9124 2d3d a323 febd b006 ebbe 4ffc b140
00000270: ff73 bc3e abca 043e 4673 0e3f 4e30 2f3b
00000280: fea9 423e e961 af3e 07c5 483e e7e1 3d3d
00000290: 934a aebd 0ece acbd bb4e 663e 449f dd3d
000002a0: ceef 8a3e ea56 353f f0ac c6bd 0b50 54be
000002b0: d8b5 b2be 4c56 0dbe 0f62 10bf 037c f73e
000002c0: 9998 6a3e b74b 9cbe 1f11 a1be 33c2 753d
000002d0: fd92 a93d 6d9a b93e 1e78 bd3d af0c 74be
000002e0: 4239 d83d 80d7 9bbe d501 1c3e c17c 963d
000002f0: b10f fe3e 0c55 15bf 9745 b6be 514e 413f
00000300: eb37 0a3f 95ca f03e c4a3 1a3e dfec eebe
00000310: 7943 4c3e cb1a 783e c6dc eabc 9a8b 09be
00000320: 35e8 8bc0 d88e 88bc 2ba2 c1be cbfa 05bf
00000330: e7ae 8d3e 423a 86be 65e4 0d39 9f43 50be
00000340: 6f8b b9bc c41a a63e 341d 883e d57f c53e
00000350: 6791 923e 45f7 eebd 24dd d23e 41e6 0e3e
00000360: b483 07be 5fa5 f43e a102 bfc0 a094 d9bd
00000370: 5b73 213d 0826 853e acb5 b5be 8b9a 25be
00000380: 1182 9abd 3d83 523c 1edb 313f 874e 5ebf
00000390: 71ee 7e3e fc87 fcbe 3811 54be 2e96 df3d
000003a0: f1cb 273e 7bc3 b1be c3fe 803e d100 46bd
000003b0: 20fd 14bf 8f09 b4be 38c4 b33d ee63 15be
000003c0: 7cfe 393e 41c7 033f 64cd cebe bfe9 13c1
000003d0: 37b5 823d a3c4 2cbe 055c b1bd 2f42 c83e
000003e0: 40ae c73e 44b3 123d 7aa8 15c1 6e5c ca3e
000003f0: 1747 f43e 4bb7 5cbe c22f f6be 3409 26bd
