results/01_31_2023_larger_input/min_loss.pt (torch, 5355 bytes, 1 tensors)

weights f4 [6, 7, 5, 5]
0	0x3f180ea4	0.5939734
1	0x3ea4f053	0.32214603
2	0xbd8703bc	-0.06592509
3	0xbcf20224	-0.029542036
4	0x3f5353cb	0.8254973
5	0xbe89776b	-0.2684892
6	0x3f17be17	0.5927443
7	0x3f720cfb	0.94551057
8	0x3f21917e	0.6311263
9	0xbf0c3103	-0.54762286
10	0x3f229aa0	0.6351719
11	0x3f9148e8	1.1350374
12	0xbf8e1d12	-1.1102622
13	0x3e534c70	0.20634627
14	0xbecf9d2c	-0.405496
15	0x3dd66ae1	0.10469604
16	0xbf3146cb	-0.69248646
17	0x3f4e4d2e	0.80586517
18	0xbf32712b	-0.6970393
19	0xbed94b28	-0.42440152
20	0x3f4b43fd	0.79400617
21	0x3ede9a8e	0.4347729
22	0x3f7aa8e2	0.97913945
23	0xbfa8b9da	-1.3181717
24	0xbea76819	-0.32696608
25	0x3feeb411	1.8648702
26	0xbf161a3c	-0.5863378
27	0xbed055bf	-0.4069042
28	0x3da2460b	0.07923516
29	0xbfa3e393	-1.2803825
30	0xbf8be715	-1.0929896
31	0xbf0dc240	-0.55374527
32	0xbf04f311	-0.5193339
33	0x3fb86535	1.4405886
34	0x3da2ef15	0.079557575
35	0x3f0b679e	0.5445498
36	0x3f0cd6ac	0.55015063
37	0xbf4dcb4c	-0.8038833
38	0x3e20ee92	0.15716007
39	0x3f73d901	0.95252997
40	0x3f336194	0.7007077
41	0x3ef5fe72	0.4804569
42	0xbe3b6978	-0.18301952
43	0xbf535d44	-0.8256419
44	0xbf44c3f7	-0.7686152
45	0xbec60288	-0.38673806
46	0xbfb69853	-1.4265236
47	0x3e080df6	0.13286576
48	0xbed4e1d0	-0.4157853
49	0xbf0de6f4	-0.5543053
50	0x401c66b4	2.4437685
51	0xbf5ee037	-0.87060875
52	0xbe766051	-0.2406018
53	0x3fb281d9	1.3945876
54	0xbeef28de	-0.46710867
55	0x3fb5d638	1.4205999
56	0xbec217bd	-0.37908736
57	0x3fcd31c4	1.6030812
58	0x40e5b9c4	7.1789265
59	0xbecbf86b	-0.39837965
60	0xbed82667	-0.422168
61	0xbf85cf5d	-1.0453907
62	0x3f65e6e9	0.89805466
63	0x3e69462d	0.22780676
64	0xbf756110	-0.9585123
65	0xbe070181	-0.13184167
66	0x3d52afde	0.05143725
67	0xbf1c2052	-0.60986817
68	0x3c4b8f1d	0.012424258
69	0xbf5d47ac	-0.8643749
70	0xbf25272e	-0.6451291
71	0x3f93b764	1.1540341
72	0x3e83be50	0.25731134
73	0xbc7b4f0a	-0.015338669
74	0x3d029891	0.03188378
75	0x3e5c084d	0.21487541
76	0xbeb41641	-0.35173228
77	0x3e35d812	0.17758206
78	0x3e956fb4	0.29186785
79	0xbf96244f	-1.172983
80	0x3de45b73	0.11150255
81	0x3d6b5c0d	0.057460833
82	0xbe36e513	-0.17860822
83	0xc038b8c7	-2.886278
84	0xbf08ff1c	-0.53514266
85	0x3f107456	0.56427515
86	0xbf0bbe6c	-0.54587436
87	0x3f02ce8b	0.5109641
88	0x3e9b77af	0.3036475
89	0x3f30e617	0.6910109
90	0x3efcfed2	0.49413162
91	0x3e95e592	0.2927671
92	0xbf0dde00	-0.5541687
93	0x3f6225c2	0.88338864
94	0x3ec6a591	0.38798192
95	0x3e61c53f	0.220479
96	0xbf4a3017	-0.7897963
97	0xbef4a098	-0.47778773
98	0x3ea73ae3	0.32662115
99	0xbf005997	-0.50136703
100	0x3d7cdf98	0.061736673
101	0xbe530164	-0.20605999
102	0x3f723cbe	0.94623935
103	0x3f99ab9e	1.2005498
104	0xbec30d46	-0.38096064
105	0xbe638a0f	-0.22220634
106	0xbf236c98	-0.63837576
107	0x3fbb6904	1.4641423
108	0x3f95e55f	1.1710624
109	0x3e79d0b2	0.24396017
110	0x3e9ecbf7	0.31014988
111	0x3ebbb769	0.36663368
112	0x3f8585c1	1.0431443
113	0xbeac8a73	-0.33699378
114	0xbf4dafa6	-0.80346143
115	0xbdb41f8c	-0.087950796
116	0x3f7b5033	0.9816925
117	0x3eade4af	0.33963534
118	0xbde76c7b	-0.11299988
119	0xbf267aff	-0.6503143
120	0xbeff7604	-0.49894726
121	0x3e867aaf	0.26265475
122	0x3eadc2ec	0.33937776
123	0xbde7b90a	-0.1131459
124	0xbf4b9cfa	-0.795364
125	0x3e41be4c	0.18920249
126	0x3ecce763	0.40020284
127	0x3fa84510	1.3146076
128	0xbf295bb9	-0.6615558
129	0xbf97a9ae	-1.1848657
130	0xbf176a55	-0.59146625
131	0x3dde3eee	0.10851847
132	0xbf1493a3	-0.58037776
133	0xbe6fa4d5	-0.23402722
134	0xbc671a6e	-0.014105422
135	0xbef3f4a4	-0.47647583
136	0x3f2cbe0a	0.67477477
137	0x3ee79e76	0.45238084
138	0x3e41f374	0.18940526
139	0x3f28b4b6	0.65900743
140	0xbf579fc2	-0.84228146
141	0x3fc28447	1.5196618
142	0xbeec57f4	-0.46160853
143	0xbe5eaab7	-0.2174481
144	0x3f4ee328	0.8081536
145	0x3f5fb863	0.87390727
146	0xbeba5ba6	-0.36398047
147	0x3e9dac2c	0.3079542
148	0x3f408209	0.7519842
149	0x3f09d333	0.5383789
150	0x3e1ef17b	0.15521805
151	0x3e9a2d8d	0.30112877
152	0xbe95febb	-0.29295906
153	0x3f53f2d6	0.82792413
154	0x3e5e05b6	0.21681866
155	0xc11a6544	-9.649723
156	0xbe8ac7c2	-0.27105528
157	0x3f03015d	0.51173955
158	0x3f80cb41	1.0062028
159	0xbf3a33a8	-0.7273507
160	0xbfac84aa	-1.3477986
161	0x3ef7b59d	0.48380747
162	0xbf6b535b	-0.91924065
163	0x3e90e9d6	0.28303403
164	0x3ea482a4	0.3213092
165	0x3f94b581	1.1617891
166	0x3f7b2102	0.9809724
167	0x3f6ec84a	0.93274367
168	0x3ea42388	0.32058358
169	0x3f1beb41	0.60905844
170	0x3d3fdbc9	0.046840463
171	0xbe3915be	-0.180747
172	0xbe9331ff	-0.28749081
173	0xbf38c6e7	-0.721785
174	0x3ecc1a88	0.39863992
175	0xbc97144f	-0.018442301
176	0xbf2ffcdf	-0.68745226
177	0xbfb19a2c	-1.3875175
178	0x3e999721	0.29998115
179	0x3eeb3b9c	0.45943916
180	0xbf13abc0	-0.57683945
181	0x3eec7cf6	0.46189088
182	0xbf6bb829	-0.9207788
183	0xbf654905	-0.89564544
184	0xbeb66d57	-0.35630295
185	0xbdfc3e9b	-0.123166285
186	0xbe9e56ea	-0.30925685
187	0xbd6d5af1	-0.057948057
188	0x3dd3027b	0.103032075
189	0xbf1775a6	-0.5916389
190	0xbeaab660	-0.33342266
191	0xbf2fd103	-0.686783
192	0x3e801c10	0.2502141
193	0xbf8c378a	-1.0954449
194	0x3ef2898e	0.4737057
195	0x3f1c9e66	0.61179197
196	0x3f84c67f	1.0373076
197	0x3f67da72	0.90567696
198	0x3fb7b2e0	1.4351463
199	0x3f5171c1	0.818142
200	0xc10c7189	-8.777719
201	0xbf4918cf	-0.7855348
202	0xbf37e8e8	-0.7183976
203	0xbf532d55	-0.82491046
204	0x3e09fb3e	0.13474748
205	0x3ebd45a5	0.36967197
206	0xbf2be898	-0.67151785
207	0x3f61a846	0.8814739
208	0x3f50cad4	0.8155949
209	0x3f3d9cbf	0.740673
210	0xbf32454b	-0.6963698
211	0xbc546dde	-0.0129656475
212	0xbf67b2b2	-0.9050704
213	0x3ec0ebbf	0.3767986
214	0x3d9461a6	0.072451875
215	0x3ec38ed1	0.38194898
216	0x3dac0ab8	0.08400482
217	0xbe602ffc	-0.21893305
218	0x40c05a6c	6.011038
219	0xbed7143f	-0.42007634
220	0xbe45c11c	-0.19311947
221	0x3fcd36ea	1.6032383
222	0xbf4bf61b	-0.796724
223	0xbf9cf7b1	-1.226309
224	0x3d056ac5	0.032572526
225	0xc0b0af85	-5.5214257
226	0xbf4e28dc	-0.80531096
227	0xbeab15ab	-0.3341497
228	0xbfa03d2c	-1.2518668
229	0xba45d723	-0.00075470115
230	0x3d7c5ad3	0.061610054
231	0x3f24a347	0.6431164
232	0x3f3ae7d5	0.7301
233	0xbec24358	-0.37942004
234	0xbf87f8b4	-1.0622773
235	0xbf3c48ab	-0.7354838
236	0x3f3fb826	0.74890363
237	0xbdbe0506	-0.09278302
238	0xbf0c9ed1	-0.54929835
239	0x3ef583a3	0.47951993
240	0xbfa00133	-1.2500366
241	0xbf1ea876	-0.619758
242	0x3f044e56	0.5168203
243	0xc0a8d48c	-5.2759457
244	0x3f8bc586	1.0919654
245	0xbebb72a0	-0.3661089
246	0xbd906bd0	-0.070518136
247	0xbf07d888	-0.53064775
248	0xbdfff2c3	-0.12497475
249	0xbd5921d2	-0.05301077
250	0xbfd2d616	-1.6471584
251	0xbdc8a908	-0.09797865
252	0x3f4115e4	0.7542403
253	0x3f733502	0.9500276
254	0xbf85f3a4	-1.0464978
255	0x3f90a00d	1.1298844
