results/01_31_2023_20000in_500e/min_loss.pt (torch, 5355 bytes, 1 tensors)

weights f4 [6, 7, 5, 5]
0.638661 -0.18221621 0.096264966 0.39505994 0.110389404 0.3848502 -0.08380023 -0.15563665
0.103194304 -0.5728224 0.093972154 -0.33943084 0.21114361 -0.090773925 -0.8435061 -0.6068964
0.21202792 -0.06684448 -0.027182736 0.2631214 -0.30030435 -0.638852 -0.23277427 0.7465599
0.087869935 0.57781905 -0.25267237 0.087031424 1.0021179 0.033465907 -0.5923496 0.010440617
-0.20183736 5.7960677 0.049471106 0.28066644 -0.05132781 0.7285443 -0.20272498 -0.042887673
0.30787134 -0.15680318 0.5004058 -0.36353484 -0.04419856 -0.051089875 -0.009841069 -0.033806205
0.17086108 -0.53170335 -0.12568986 0.02940403 0.044729114 0.19060707 0.07495497 -0.2542505
0.2648184 -0.05291642 -12.82004 0.53032315 -0.15329534 -0.08933921 -0.5031692 -0.16231468
0.028685177 -0.5787979 -0.22087304 0.5453404 -0.1640763 -0.30608928 0.15577888 0.23412801
0.019257532 -0.020550888 0.103801645 0.60257 -0.36192176 -0.029799182 0.45323798 -0.16675164
0.11806288 0.5141714 0.08030489 -7.694136 0.10245812 -0.00908537 -0.21399903 -0.06234244
0.4385452 -0.046004362 0.10613815 -0.38858324 0.08967483 -0.27222604 -0.1287356 0.028143002
0.873275 0.20755439 0.33272576 0.08767612 0.12276034 0.4474999 0.49687743 0.5105676
0.823105 -0.36523524 -0.32229343 0.39646164 0.456666 -0.029363614 -0.6089877 0.11454595
-0.26524377 0.16649015 0.115055144 -0.3298687 0.8049275 0.13014732 0.264668 -0.1249756
-0.6561465 0.7029755 -0.01098749 0.47008336 -0.2681504 -0.17179935 -0.7630583 0.03796499
-0.3994137 -0.054771267 0.22086209 -0.13390921 0.39428297 0.4173354 0.050603706 -0.4726352
0.55264294 -0.022980157 0.14536412 0.43695903 -0.04401788 0.30526033 -0.05769925 0.19934516
0.3500262 -0.41329175 -0.25563532 0.43860626 0.56887734 -0.5015529 -0.17645036 -0.08779798
-0.04703426 -0.07945454 -0.36571962 9.637147 -0.19826664 -0.5334037 0.0506194 0.06610608
-0.23679382 0.21638995 -0.30759525 0.08825517 -0.22909617 0.51284 -0.3778653 -0.8177269
-0.12276273 0.23667724 -0.24137542 -0.03464371 0.21070848 0.23411407 -0.11619579 0.34685314
0.19460054 -0.53795016 -0.4123457 0.1446286 -0.6872248 0.17510334 0.51542073 -0.22920232
-0.21836087 0.038725656 0.3185316 -0.6651681 -0.24904828 -0.44283852 -0.21170978 -0.07027025
0.1901694 0.22668245 0.27554408 0.24177915 0.09121934 1.0843141 0.6652217 0.16779132
-10.94779 0.057354692 -0.16849917 0.23574093 -0.015165097 0.11570458 -0.18689178 0.03156217
0.0153416 -0.24325833 -0.045327198 0.44967782 0.08248686 -0.020462506 -0.5081366 -0.19612208
-0.36351278 0.3244954 -9.04876 0.621006 0.03181991 0.5818418 0.09348773 0.17838174
0.04464896 -3.1858914 -0.43689474 -0.022353237 -0.37150544 -0.05960029 -0.48518375 0.3481573
0.18829222 0.59205365 0.606766 0.052706253 0.012428041 -0.5489399 -0.05941402 0.3760444
-0.15453617 0.16013569 0.5177866 -8.679268 0.4988307 -0.26847488 0.32145646 0.026400676
-0.7680954 -0.004662367 11.255012 -0.20392248 -0.0006878065 0.35814723 0.05624399 -0.33185086
00000000: 4a7f 233f e396 3abe 9126 c53d 4c45 ca3e
00000010: d713 e23d 160b c53e 749f abbd 375f 1fbe
00000020: 8957 d33d 7da4 12bf 7974 c03d e1c9 adbe
00000030: 0836 583e aee7 b9bd 04f0 57bf 905d 1bbf
00000040: d91d 593e c2e5 88bd 54ae debc d9b7 863e
00000050: 7ec1 99be ce8b 23bf 615c 6ebe 8d1e 3f3f
00000060: 27f5 b33d f3eb 133f 465e 81be 883d b23d
00000070: 6645 803f 8c13 093d 39a4 17bf 1f0f 2b3c
00000080: 74ae 4ebe 6379 b940 37a2 4a3d 83b3 8f3e
00000090: 1c3d 52bd e181 3a3f 2397 4fbe fcaa 2fbd
000000a0: 50a1 9d3e 0391 20be 981a 003f 3d21 babe
000000b0: 8d09 35bd 9e43 51bd 6f3c 21bc 6078 0abd
000000c0: 35f6 2e3e b61d 08bf d8b4 00be b8e0 f03c
000000d0: e035 373d 802e 433e fe81 993d 1f2d 82be
000000e0: 4796 873e e3be 58bd e21e 4dc1 42c3 073f
000000f0: 74f9 1cbe 7af7 b6bd b2cf 00bf d235 26be
00000100: 2dfd ea3c 192c 14bf 8b2c 62be 6e9b 0b3f
00000110: 9e03 28be bcb7 9cbe 8084 1f3e 41bf 6f3e
00000120: f9c1 9d3c 565a a8bc f595 d43d 0742 1a3f
00000130: cf4d b9be 6a1d f4bc cf0e e83e f1c0 2abe
00000140: f4ca f13d bda0 033f e476 a43d 5d36 f6c0
00000150: 90d5 d13d ceda 14bc 9022 5bbe c95a 7fbd
00000160: ff88 e03e 126f 3cbd f55e d93d 62f4 c6be
00000170: 70a7 b73d 3661 8bbe 44d3 03be 278c e63c
00000180: f38e 5f3f 2389 543e 085b aa3e 8a8f b33d
00000190: c669 fb3d b51e e53e b866 fe3e 8fb4 023f
000001a0: 02b7 523f 1d00 bbbe a503 a5be 05fd ca3e
000001b0: 20d0 e93e f68b f0bc 9ee6 1bbf 1197 ea3d
000001c0: 08ce 87be 657c 2a3e 08a2 eb3d 8de4 a8be
000001d0: bb0f 4e3f 5745 053e 9082 873e 35f3 ffbd
000001e0: 38f9 27bf 34f6 333f e004 34bc c4ae f03e
000001f0: 024b 89be 2bec 2fbe ca57 43bf 2d81 1b3d
00000200: f47f ccbe d657 60bd ac29 623e 7f1f 09be
00000210: 75df c93e fcac d53e d545 4f3d 3efd f1be
00000220: 027a 0d3f e240 bcbc 55da 143e 18b9 df3e
00000230: 184c 34bd 154b 9c3e 0c56 6cbd 2321 4c3e
00000240: a236 b33e fa9a d3be a2e2 82be 0091 e03e
00000250: f2a1 113f c565 00bf 67af 34be 6dcf b3bd
00000260: ffa6 40bd 10b9 a2bd 9a3f bbbe c131 1a41
00000270: 6906 4bbe 258d 08bf 4a56 4f3d a062 873d
00000280: 147a 72be 5495 5d3e 207d 9dbe 20bf b43d
00000290: 3098 6abe 7b49 033f 9077 c1be 8d56 51bf
000002a0: 076b fbbd 855b 723e 1e2b 77be 90e6 0dbd
000002b0: f7c3 573e 99bb 6f3e 0ff8 edbd bc96 b13e
000002c0: 5d45 473e 1ab7 09bf fa1e d3be 8519 143e
000002d0: f7ed 2fbf 4a4e 333e 9df2 033f 03b4 6abe
000002e0: fe99 5fbe cb9e 1e3d 9316 a33e 7548 2abf
000002f0: 8306 7fbe bbbb e2be 73ca 58be d9e9 8fbd
00000300: c4bb 423e 721f 683e 1d14 8d3e f494 773e
00000310: 35d1 ba3d ceca 8a3f f84b 2a3f 7dd1 2b3e
00000320: 262a 2fc1 c1ec 6a3d 0c8b 2cbe 1266 713e
00000330: 0777 78bc 86f6 ec3d 8f60 3fbe 5547 013d
00000340: 565b 7b3c b618 79be 03a9 39bd 2c3c e63e
00000350: dfee a83d fca0 a7bc 3d15 02bf 3ad4 48be
00000360: 591e babe 4324 a63e b9c7 10c1 40fa 1e3f
00000370: 9855 023d 96f3 143f 7f76 bf3d b4a9 363e
00000380: d4e1 363d a5e5 4bc0 abb0 dfbe 231e b7bc
00000390: f635 bebe 6f1f 74bd 016a f8be ac41 b23e
000003a0: adcf 403e d490 173f 0455 1b3f 83e2 573d
000003b0: fb9e 4b3c 5387 0cbf 1e5c 73bd e488 c03e
000003c0: bb3e 1ebe 9cfa 233e aa8d 043f 48de 0ac1
000003d0: bd66 ff3e 8a75 89be f195 a43e 3b46 d83c
000003e0: e6a1 44bf c5c6 98bb 8714 3441 0ed1 50be
000003f0: ea4d 34ba 135f b73e 1960 663d 5be8 a9be
