src/min_loss.pt (torch, 5358 bytes, 1 tensors)

weights f4 [6, 7, 5, 5]
0.41253853 0.15649971 -1.0379976 -1.1074872 -0.42565575 -0.6025586 1.4029027 0.5372556
-0.16489904 -0.017338824 0.28341755 -1.9506547 1.03528 -0.11835011 1.2198483 -0.13023606
0.36159548 0.2709318 -1.6363742 0.52130264 0.23477867 -1.1199332 -1.8980371 0.041754175
-1.3474445 0.5967873 0.22250907 -0.80782294 0.061841577 0.0023418758 -1.1585026 0.25443295
0.28495842 0.8063774 1.1999537 1.4463266 0.16167893 -0.45770454 -0.26595718 -0.20404696
-0.78385544 -0.9671978 1.2706964 0.9490316 1.0901707 0.1933845 -0.20982032 0.59560156
1.3615952 -1.8089732 2.4310937 -2.6121335 1.1406108 -0.1577098 -1.1155516 -0.10027953
0.28905812 -1.2575811 2.1359358 -0.11482712 0.41441497 -2.3819306 0.2275277 -1.0652976
1.6665101 -0.28197655 -2.3283193 -0.004707971 -0.5060705 -0.28134567 -0.6406308 0.31632167
1.3919542 -0.044330567 1.1301146 0.12819935 -0.11279675 0.08892145 0.82213694 1.0838631
1.6967045 0.0013824953 0.15552862 0.9364426 1.337424 -0.34021583 -0.21400316 1.4650639
-1.4850618 1.7456127 1.3185601 -0.022603294 1.2510699 0.29417616 0.41114217 -1.7208121
-1.1059672 0.061674695 -0.92992324 0.4520488 1.2175603 -0.15109488 1.5829377 -1.330204
0.84245634 0.45204204 -0.6524725 0.42726058 -0.39907837 0.3887491 -1.2505798 -1.2186685
-0.6149883 -1.5619326 0.34182942 -0.36975342 0.7704494 0.8572543 -0.64552116 0.43416682
-0.058714744 -0.054336406 0.67815137 0.5748789 0.39849642 -2.5556095 -0.5370812 -0.0491335
-0.13449731 -0.41428325 -1.1413802 -2.6221504 0.97607696 0.57036 0.35672247 -1.0047863
1.4667045 -1.2164291 0.37107074 -0.78531915 0.5379041 -0.9708955 0.2827048 0.011517501
-0.6184305 -0.24335603 -0.37416086 0.85039264 -0.4571882 -0.25824603 0.27917022 -0.39724118
0.9849217 -1.031145 -1.4479548 0.666835 0.8948924 0.1394172 -0.20818721 0.87565964
0.1505412 0.2523045 -1.1781693 1.2474676 -1.1421465 -1.7847346 0.428308 -0.36578044
-0.59735215 -1.0246885 0.26858515 0.37006187 -2.0578732 -0.5923721 1.9850461 0.18996117
1.3132937 0.36819315 1.10148 0.3963329 -0.9484993 -0.776859 1.0470359 1.0450697
-0.59477764 2.900414 0.7867704 -1.0353492 -0.25542253 -0.0035205237 0.31823593 1.9176815
1.0017343 0.48070222 0.01108998 -0.7520759 -1.375946 -1.7577345 -0.34750193 2.390512
0.4906801 0.65575397 0.7098113 1.6533271 -0.25717086 -1.6330146 -0.92726856 -1.798527
1.4030482 -2.3536391 -0.24501826 -0.07707433 0.2882733 0.85098565 1.752275 0.19465646
-0.3046089 2.0904293 -0.104877226 -1.3369153 -0.5477915 -1.6071554 1.9062381 -0.049953446
-1.0545313 -0.031572394 -0.50261813 -0.09471439 1.5885503 0.8323188 0.029726513 1.3757341
-1.3620459 -1.0566037 -1.6827297 -0.39023608 -1.0167911 -0.06483713 -0.23316143 0.9799211
-0.8104899 -1.5604388 0.9991963 -0.34121585 0.060961485 0.44658846 1.1051755 -0.4329893
-0.42612427 -1.112665 0.17511237 0.7795262 -0.3072296 -0.42932943 -0.1802301 -0.048094805
00000000: 4038 d33e 7641 203e 1bdd 84bf 24c2 8dbf
00000010: 8def d9be 4841 1abf 5192 b33f 9589 093f
00000020: 4bdb 28be 260a 8ebc 1b1c 913e 0eaf f9bf
00000030: 0e84 843f 8b61 f2bd fd23 9c3f 9a5c 05be
00000040: 0b23 b93e 93b7 8a3e b674 d1bf 1774 053f
00000050: d269 703e f959 8fbf e1f2 f2bf 6d06 2b3d
00000060: 1079 acbf 0dc7 183f 6bd9 633e 7ccd 4ebf
00000070: 984d 7d3d 287a 193b d049 94bf 0945 823e
00000080: 12e6 913e c06e 4e3f 1598 993f 3b21 b93f
00000090: 298f 253e 4058 eabe 8a2b 88be b0f1 50be
000000a0: c0aa 48bf 469a 77bf 2ea6 a23f bcf3 723f
000000b0: b78a 8b3f 9606 463e 23db 56be 5879 183f
000000c0: c048 ae3f 6f8c e7bf 0a97 1b40 322d 27c0
000000d0: 89ff 913f ae7e 21be 65ca 8ebf 5b5f cdbd
000000e0: 6dff 933e 6bf8 a0bf 2cb3 0840 7b2a ebbd
000000f0: 332e d43e 8d71 18c0 05fd 683e ac5b 88bf
00000100: 3450 d53f 3b5f 90be 2f03 15c0 5345 9abb
00000110: d68d 01bf 8a0c 90be 6100 24bf eaf4 a13e
00000120: 8e2b b23f f893 35bd 98a7 903f b146 033e
00000130: fc01 e7bd 731c b63d 9177 523f 07bc 8a3f
00000140: 9d2d d93f d834 b53a e542 1f3e b4ba 6f3f
00000150: b630 ab3f c530 aebe a523 5bbe 3787 bb3f
00000160: 8116 bebf 3d70 df3f 94c6 a83f 8b2a b9bc
00000170: 0f23 a03f 429e 963e 3a81 d23e 9243 dcbf
00000180: 5590 8dbf 9b9e 7c3d 730f 6ebf f172 e73e
00000190: 04d9 9b3f 9eb8 1abe b49d ca3f 2044 aabf
000001a0: 38ab 573f 0e72 e73e 7008 27bf e6c1 da3e
000001b0: 0054 ccbe 1f0a c73e 0013 a0bf 54fd 9bbf
000001c0: e06f 1dbf 68ed c7bf 4404 af3e 5250 bdbe
000001d0: 2c3c 453f 0575 5b3f e040 25bf 1d4b de3e
000001e0: df7e 70bd da8f 5ebd 549b 2d3f 432b 133f
000001f0: b907 cc3e 1b8f 23c0 277e 09bf 3540 49bd
00000200: aab9 09be ef1c d4be bf18 92bf 50d1 27c0
00000210: 2ee0 793f 1d03 123f 54a4 b63e d69c 80bf
00000220: f9bc bb3f f3b3 9bbf fcfc bd3e ad0a 49bf
00000230: 15b4 093f 9c8c 78bf afbe 903e e7b3 3c3c
00000240: 7651 1ebf 5332 79be 0392 bfbe 55b3 593f
00000250: 9214 eabe d338 84be 66ef 8e3e 3263 cbbe
00000260: d423 7c3f 8ffc 83bf 9556 b9bf b3b5 2a3f
00000270: ab17 653f 62c3 0e3e 072f 55be 3b2b 603f
00000280: 7927 1a3e 0e2e 813e 40ce 96bf 05ad 9f3f
00000290: db31 92bf 2f72 e4bf 304b db3e 9347 bbbe
000002a0: 12ec 18bf fe28 83bf fe83 893e c078 bd3e
000002b0: 32b4 03c0 b3a5 17bf fe15 fe3f 2e85 423e
000002c0: 021a a83f d083 bc3e 4cfd 8c3f 25ec ca3e
000002d0: dad0 72bf 3be0 46bf 4605 863f d8c4 853f
000002e0: 5943 18bf 62a0 3940 c969 493f 5386 84bf
000002f0: bec6 82be 96b8 66bb d2ef a23e 9676 f53f
00000300: d438 803f 9a1e f63e bfb2 353c 0c88 40bf
00000310: 001f b0bf 72fd e0bf c6eb b1be 26fe 1840
00000320: 6c3a fb3e 7edf 273f 31b6 353f 39a0 d33f
00000330: e6ab 83be 9f06 d1bf 7961 6dbf 2236 e6bf
00000340: 1597 b33f 06a2 16c0 11e6 7abe 25d9 9dbd
00000350: 8f98 933e 32da 593f 8c4a e03f 0654 473e
00000360: b3f5 9bbe 98c9 0540 dfc9 d6bd 0a20 abbf
00000370: 103c 0cbf 45b7 cdbf 9cff f33f fc9b 4cbd
00000380: e2fa 86bf 0e52 01bd 95ab 00bf 9ef9 c1bd
00000390: 9e55 cb3f d812 553f 0485 f33c 0e18 b03f
000003a0: 8557 aebf ca3e 87bf b063 d7bf 06cd c7be
000003b0: 3626 82bf 54c9 84bd dfc1 6ebe 1cdc 7a3f
000003c0: 447c 4fbf 75bc c7bf 54cb 7f3f d8b3 aebe
000003d0: c0b2 793d 3ea7 e43e 6476 8d3f c6b0 ddbe
000003e0: f62c dabe cf6b 8ebf a850 333e 078f 473f
000003f0: 334d 9dbe 11d1 dbbe 3d8e 38be 0fff 44bd
